Magic_Monks/ML model/audio_model_int8.tflite (tflite, 37112 bytes, 5 tensors)

tfl.pseudo_qconst1 i1 [5, 64]
000000 ed e0 df 1e 01 1e f3 e5 e5 11 f5 22 2d 2c e6 db
       -19 -32 -33 30 1 30 -13 -27 -27 17 -11 34 45 44 -26 -37
000010 de e3 09 fd 30 05 e2 21 34 25 1d 11 2b f6 37 cd
       -34 -29 9 -3 48 5 -30 33 52 37 29 17 43 -10 55 -51
000020 12 7f 39 02 4b 1b 25 25 0d e2 2a 00 f3 19 48 f8
       18 127 57 2 75 27 37 37 13 -30 42 0 -13 25 72 -8
000030 fa 33 23 cd 21 ef 05 14 02 e8 02 14 e5 4f 29 19
       -6 51 35 -51 33 -17 5 20 2 -24 2 20 -27 79 41 25
000040 2c 07 f3 ef e5 15 e8 08 da e8 f1 b8 d6 81 44 c4
       44 7 -13 -17 -27 21 -24 8 -38 -24 -15 -72 -42 -127 68 -60
000050 f3 0f dc ec ca 3e 25 f2 94 1e f7 07 02 2e ae 0e
       -13 15 -36 -20 -54 62 37 -14 -108 30 -9 7 2 46 -82 14
000060 02 a8 94 b1 c5 4e 41 f4 1c 21 db ef 02 df 2f 38
       2 -88 -108 -79 -59 78 65 -12 28 33 -37 -17 2 -33 47 56
000070 a9 f0 04 27 31 5f 86 32 49 ba ad 03 1b 8f a2 fd
       -87 -16 4 39 49 95 -122 50 73 -70 -83 3 27 -113 -94 -3
000080 e8 3e 34 2e 29 a1 9f 03 36 e7 d1 a2 ef 24 cd c6
       -24 62 52 46 41 -95 -97 3 54 -25 -47 -94 -17 36 -51 -58
000090 6b ca 20 29 81 dd 18 ae 1b d1 e1 e2 ad ed dc 03
       107 -54 32 41 -127 -35 24 -82 27 -47 -31 -30 -83 -19 -36 3
0000a0 eb 98 81 4a a2 f1 a4 00 e2 27 0e 29 bd 0e a1 1b
       -21 -104 -127 74 -94 -15 -92 0 -30 39 14 41 -67 14 -95 27
0000b0 b2 3a ba fc 32 d8 2c 31 e7 32 4d 1e 20 97 7a f1
       -78 58 -70 -4 50 -40 44 49 -25 50 77 30 32 -105 122 -15
0000c0 f3 f0 ee 26 b3 aa fe 04 fb e9 eb d0 81 df 19 e3
       -13 -16 -18 38 -77 -86 -2 4 -5 -23 -21 -48 -127 -33 25 -29
0000d0 06 06 f8 e5 ff d8 e9 b3 b6 18 ea 43 e3 10 cd e5
       6 6 -8 -27 -1 -40 -23 -77 -74 24 -22 67 -29 16 -51 -27
0000e0 34 bc 42 3a 92 e4 d4 e6 d3 f2 b3 1c c3 e8 f3 fa
       52 -68 66 58 -110 -28 -44 -26 -45 -14 -77 28 -61 -24 -13 -6
0000f0 5d d0 11 35 e6 d3 e8 cd 95 30 3c 21 d4 92 b1 0a
       93 -48 17 53 -26 -45 -24 -51 -107 48 60 33 -44 -110 -79 10

tfl.pseudo_qconst3 i1 [64, 64]
000000 c0 a4 f9 d0 d7 a2 54 86 39 c4 a1 32 20 41 fc a6
       -64 -92 -7 -48 -41 -94 84 -122 57 -60 -95 50 32 65 -4 -90
000010 30 f2 55 8e 00 4c d8 0b 4e af a9 31 e2 b6 5e 0a
       48 -14 85 -114 0 76 -40 11 78 -81 -87 49 -30 -74 94 10
000020 bd a7 9e 07 81 da f5 5c 39 45 aa f3 0a 43 14 83
       -67 -89 -98 7 -127 -38 -11 92 57 69 -86 -13 10 67 20 -125
000030 26 ed d3 be 5d ac ad 95 ad 16 5c 5a 91 c4 49 8b
       38 -19 -45 -66 93 -84 -83 -107 -83 22 92 90 -111 -60 73 -117
000040 31 e3 36 64 4c 2b 6e d4 d7 02 0b d0 06 2d fb 7f
       49 -29 54 100 76 43 110 -44 -41 2 11 -48 6 45 -5 127
000050 c7 c4 53 da 16 fe 5c c2 df 2f 2d 58 cd cc 6c 03
       -57 -60 83 -38 22 -2 92 -62 -33 47 45 88 -51 -52 108 3
000060 dc 30 41 0d 19 1e 4c 1e d9 30 eb 1d c5 f1 3f 1a
       -36 48 65 13 25 30 76 30 -39 48 -21 29 -59 -15 63 26
000070 c3 d1 01 db f2 ff 0f 1a 34 58 3b dd 12 31 b8 f6
       -61 -47 1 -37 -14 -1 15 26 52 88 59 -35 18 49 -72 -10
000080 1f 5e 05 f3 95 40 3f b9 65 cf 02 89 84 f2 08 11
       31 94 5 -13 -107 64 63 -71 101 -49 2 -119 -124 -14 8 17
000090 5e 5c 45 68 e4 ee 90 be 61 ed ae d7 fc 63 88 9d
       94 92 69 104 -28 -18 -112 -66 97 -19 -82 -41 -4 99 -120 -99
0000a0 9e a7 e8 88 ae 43 57 0a 1d bd 33 56 e5 d3 fe f0
       -98 -89 -24 -120 -82 67 87 10 29 -67 51 86 -27 -45 -2 -16
0000b0 81 e5 fc cb c3 8d e8 e0 65 61 a8 55 bf f3 14 dd
       -127 -27 -4 -53 -61 -115 -24 -32 101 97 -88 85 -65 -13 20 -35
0000c0 3f 67 9d df ab f8 e7 f6 8b 82 46 bb e3 6a 22 b7
       63 103 -99 -33 -85 -8 -25 -10 -117 -126 70 -69 -29 106 34 -73
0000d0 0d 0a a8 bc b8 63 b8 ce 20 60 11 26 87 c0 38 e1
       13 10 -88 -68 -72 99 -72 -50 32 96 17 38 -121 -64 56 -31
0000e0 d7 03 cc 4c a0 ea f6 36 e5 50 35 fa 3d 6a 2e 63
       -41 3 -52 76 -96 -22 -10 54 -27 80 53 -6 61 106 46 99
0000f0 b3 fc 40 8c e0 ca f3 8d e0 fc 26 89 35 f3 1c 81
       -77 -4 64 -116 -32 -54 -13 -115 -32 -4 38 -119 53 -13 28 -127

tfl.pseudo_qconst5 i1 [64, 3, 3, 32]
000000 f2 ff 28 ba f1 2f e5 de ef e5 0e b6 c7 cd da e6
       -14 -1 40 -70 -15 47 -27 -34 -17 -27 14 -74 -57 -51 -38 -26
000010 00 f8 23 e4 40 19 e7 58 27 9c ef b2 0b 01 83 f3
       0 -8 35 -28 64 25 -25 88 39 -100 -17 -78 11 1 -125 -13
000020 1c ef 16 98 03 03 22 20 ef f8 12 a7 15 b7 ee 29
       28 -17 22 -104 3 3 34 32 -17 -8 18 -89 21 -73 -18 41
000030 ff 34 16 cd 09 1d f9 7f fd 9e 31 c4 1b e4 be 44
       -1 52 22 -51 9 29 -7 127 -3 -98 49 -60 27 -28 -66 68
000040 1a ee e0 a9 13 41 1d f3 0e 10 34 fc e8 d8 02 f2
       26 -18 -32 -87 19 65 29 -13 14 16 52 -4 -24 -40 2 -14
000050 bb ea 34 08 26 19 24 6a 1e bd f9 a4 0c e9 bb 05
       -69 -22 52 8 38 25 36 106 30 -67 -7 -92 12 -23 -69 5
000060 21 01 f8 c1 00 24 0e de 08 d8 1e 04 ed 2a d2 e0
       33 1 -8 -63 0 36 14 -34 8 -40 30 4 -19 42 -46 -32
000070 f0 07 1d fd f6 0f fc 4e d3 b9 0f fd 1b d5 08 06
       -16 7 29 -3 -10 15 -4 78 -45 -71 15 -3 27 -43 8 6
000080 3e 3b 06 c6 09 2e 04 0d e5 e1 fb 0f d5 04 eb d3
       62 59 6 -58 9 46 4 13 -27 -31 -5 15 -43 4 -21 -45
000090 fd 2c fe d7 1e c7 1d 61 06 c9 f2 15 1e c5 d0 20
       -3 44 -2 -41 30 -57 29 97 6 -55 -14 21 30 -59 -48 32
0000a0 00 41 ec e7 07 de f2 f6 0b c7 41 fc d6 f9 13 b1
       0 65 -20 -25 7 -34 -14 -10 11 -57 65 -4 -42 -7 19 -79
0000b0 08 3b 1b ec e0 d3 f8 61 d1 00 cc 17 d1 ea e7 30
       8 59 27 -20 -32 -45 -8 97 -47 0 -52 23 -47 -22 -25 48
0000c0 34 66 1c c4 48 19 f0 21 01 c9 3a ef ca 23 05 d0
       52 102 28 -60 72 25 -16 33 1 -55 58 -17 -54 35 5 -48
0000d0 32 47 44 f7 23 f1 2e 46 e5 00 12 f8 e4 0d fd 5e
       50 71 68 -9 35 -15 46 70 -27 0 18 -8 -28 13 -3 94
0000e0 3d 6a 3e 01 61 17 0c 05 0b d9 3e 19 b1 1a 2b d5
       61 106 62 1 97 23 12 5 11 -39 62 25 -79 26 43 -43
0000f0 0a 2a 3b 19 f9 0d 50 74 08 11 2e 3c 2a d6 fa 56
       10 42 59 25 -7 13 80 116 8 17 46 60 42 -42 -6 86

tfl.pseudo_qconst7 i1 [32, 3, 3, 16]
000000 fc e3 16 20 f0 f5 47 de ca 0b 41 fb f4 2f 11 23
       -4 -29 22 32 -16 -11 71 -34 -54 11 65 -5 -12 47 17 35
000010 da 18 e9 19 f0 f3 18 04 ef df 20 c5 2b 2b 23 34
       -38 24 -23 25 -16 -13 24 4 -17 -33 32 -59 43 43 35 52
000020 db fb 08 fa 00 d6 3c b6 11 e1 08 ad 1f 34 29 20
       -37 -5 8 -6 0 -42 60 -74 17 -31 8 -83 31 52 41 32
000030 44 b8 24 38 f4 ae 3c cc 1d 23 67 a5 17 27 72 20
       68 -72 36 56 -12 -82 60 -52 29 35 103 -91 23 39 114 32
000040 4f db 19 16 ed d3 3e fe 32 1a 25 c8 16 56 7b 21
       79 -37 25 22 -19 -45 62 -2 50 26 37 -56 22 86 123 33
000050 5a e1 ed 2f c0 05 29 d5 2d f3 4f e5 2d 44 7f 48
       90 -31 -19 47 -64 5 41 -43 45 -13 79 -27 45 68 127 72
000060 e5 e6 d0 ef ee 22 03 f1 f9 ae b8 03 b3 32 59 d8
       -27 -26 -48 -17 -18 34 3 -15 -7 -82 -72 3 -77 50 89 -40
000070 c3 f6 c8 df 1a e7 20 30 2d d3 c4 2a e6 fc 3c ed
       -61 -10 -56 -33 26 -25 32 48 45 -45 -60 42 -26 -4 60 -19
000080 00 24 fe da 04 29 b9 0d 09 f0 cc 0d b6 0b 36 fb
       0 36 -2 -38 4 41 -71 13 9 -16 -52 13 -74 11 54 -5
000090 fc 1a f5 2f 33 1c 34 21 c3 d2 05 1b d9 ff 94 fd
       -4 26 -11 47 51 28 52 33 -61 -46 5 27 -39 -1 -108 -3
0000a0 e0 03 e8 20 16 34 18 2c e6 f0 f1 09 16 00 c0 1f
       -32 3 -24 32 22 52 24 44 -26 -16 -15 9 22 0 -64 31
0000b0 fe 0c f1 1f 19 fe fd 17 c5 e7 ea 19 0b f5 a8 25
       -2 12 -15 31 25 -2 -3 23 -59 -25 -22 25 11 -11 -88 37
0000c0 cc 09 e2 25 12 fd 08 f9 ce f8 f1 f2 ef ed 86 13
       -52 9 -30 37 18 -3 8 -7 -50 -8 -15 -14 -17 -19 -122 19
0000d0 cd fb e2 fc ff f8 12 18 06 12 08 00 0a ec 81 0b
       -51 -5 -30 -4 -1 -8 18 24 6 18 8 0 10 -20 -127 11
0000e0 c8 f9 14 15 22 f5 0e f8 d2 01 24 16 fb 04 aa 0f
       -56 -7 20 21 34 -11 14 -8 -46 1 36 22 -5 4 -86 15
0000f0 ef cd 19 e9 e5 ea 3c df ce f1 1c c4 15 e4 1f 10
       -17 -51 25 -23 -27 -22 60 -33 -50 -15 28 -60 21 -28 31 16

tfl.pseudo_qconst9 i1 [16, 3, 3, 1]
000000 68 f9 1a e8 8a 81 2e 41 dc e4 fb 28 23 58 3b 33
       104 -7 26 -24 -118 -127 46 65 -36 -28 -5 40 35 88 59 51
000010 7f 5d 9c 81 eb 91 d4 02 a7 cf c1 55 3d 09 4e 3e
       127 93 -100 -127 -21 -111 -44 2 -89 -49 -63 85 61 9 78 62
000020 5e 81 da 9a 3c c3 7f f2 32 6d 4c d3 40 7f 13 fc
       94 -127 -38 -102 60 -61 127 -14 50 109 76 -45 64 127 19 -4
000030 7a 3a 2d 3b d3 09 72 79 7f eb e1 e8 9a a6 97 60
       122 58 45 59 -45 9 114 121 127 -21 -31 -24 -102 -90 -105 96
000040 6c 0b 7f 33 4d 43 40 d9 20 f6 d6 7f bf d3 6d c7
       108 11 127 51 77 67 64 -39 32 -10 -42 127 -65 -45 109 -57
000050 bd 83 da 17 a5 c2 ea 81 c4 1d 4b 2d 11 59 1e 36
       -67 -125 -38 23 -91 -62 -22 -127 -60 29 75 45 17 89 30 54
000060 81 8d 99 7d 3a f4 58 4a 18 7f 3b 48 bc d8 17 81
       -127 -115 -103 125 58 -12 88 74 24 127 59 72 -68 -40 23 -127
000070 a2 ac 8e 9c b9 cf d2 44 1f 27 db b8 7f ad ca 92
       -94 -84 -114 -100 -71 -49 -46 68 31 39 -37 -72 127 -83 -54 -110
000080 82 c2 2c 15 7f 47 60 55 7f 29 c7 04 d0 8c 8b 1b
       -126 -62 44 21 127 71 96 85 127 41 -57 4 -48 -116 -117 27
